week_6/cifar_net_100e.pth (torch, 259765 bytes, 10 tensors)

conv1.weight f4 [10, 3, 5, 5]
000000 4a ce 8d 3d e7 de cc 3d 40 b1 94 bd ec 4f b8 bd
       0.06924112 0.10003453 -0.0726037 -0.08999619
000010 f1 0f b1 bc 54 52 16 bd d0 45 4d 3d d8 2a df bd
       -0.021614047 -0.036699608 0.050115407 -0.10896844
000020 ea c1 5c 3d 76 26 2b bd 9c af 93 3d 5f 84 99 3d
       0.05389587 -0.041784726 0.07211229 0.07495951
000030 b2 39 9e bd 23 30 16 bd 4c 77 ac 3d b4 c0 4d bd
       -0.07725848 -0.036667 0.084211916 -0.050232604
000040 56 56 ca 3d bb e6 4f bd 25 68 6d 3d df 4b 82 3d
       0.098797485 -0.05075715 0.057960648 0.063621275
000050 bd 42 34 3c b0 ce e7 3c 7c 6e a7 37 97 a1 da 3d
       0.01100224 0.028296798 1.99594e-05 0.10675352
000060 50 9e 2d bd 99 5b 65 3b fc 25 d8 3d ab 32 b2 bd
       -0.042387307 0.0034997223 0.1055412 -0.087010704
000070 ec 8d b8 3d 2a c9 2e 3c 14 56 da bd f9 6c d2 3c
       0.090114444 0.010668078 -0.10660949 0.025686728
000080 30 61 3c 3d 14 c3 28 bd 3e 44 52 3d ef 00 88 bd
       0.045991123 -0.041201666 0.051334612 -0.06640803
000090 62 4a e1 3d 30 3e b1 ba 1c c2 b0 3d f7 f5 ca 3d
       0.110005155 -0.0013522562 0.086307734 0.09910195
0000a0 ec e9 c7 bd 6f c4 99 bb 44 d4 14 bd 0a a8 89 bd
       -0.09761414 -0.004692606 -0.036335245 -0.06721504
0000b0 71 d8 27 bd 2d ef b5 bd b5 bc 0c bd 46 e2 ce 3d
       -0.0409779 -0.0888351 -0.034359653 0.10101752
0000c0 84 81 86 3b a4 4a dd bd ec fe b6 bc fc 06 ad bd
       0.004104795 -0.10805252 -0.022338353 -0.08448598
0000d0 cb f6 85 3d ea 83 00 bd cd 67 93 bd c0 16 8b bc
       0.06541213 -0.031375803 -0.07197533 -0.016978621
0000e0 c9 6b 62 bd 32 54 1f bd 39 e9 1f bd d6 65 df bc
       -0.055278573 -0.038898654 -0.039040778 -0.027270239
0000f0 7d 08 bd 3d 47 26 82 3d 43 de 76 3d 23 9a c5 3d
       0.09230135 0.06354957 0.06027056 0.0964854
000100 9f a9 a1 3c 3c c9 80 bd de 5c b3 3c ab 7a 9c bc
       0.019734202 -0.062883824 0.021894868 -0.019101461
000110 7c b5 4a 3d cb 3f 3f bd b6 91 42 3d 04 3d 83 3d
       0.049489483 -0.046691697 0.047502242 0.06408122
000120 13 5e 6c bd 5f 8c ad 3d 22 38 79 3d 84 1e db 3d
       -0.057706904 0.08474039 0.060844548 0.1069918
000130 98 4d 16 bd 41 57 b3 bd 4a 3d 29 3c 27 e4 d2 3d
       -0.036695093 -0.08756877 0.010329554 0.10297423
000140 c2 7e 79 bd d7 38 a0 3d f5 37 7f 3d 29 b3 b5 3d
       -0.0609119 0.07823341 0.062309224 0.08872063
000150 8d 36 c1 3c c0 3b ea bd ef 82 d4 3d 56 7f de 3d
       0.023585582 -0.11437178 0.10376536 0.10864131
000160 92 74 b2 bc 9e 7f b8 bd 1b 87 aa 3d 5b 88 52 bd
       -0.0217841 -0.09008716 0.083265506 -0.05139957
000170 81 6f c1 3c 1b 60 46 3d b9 ff d9 3d 17 3f a9 bd
       0.02361274 0.048431497 0.10644478 -0.082639866
000180 8f 3b 28 3b 5f 50 0a 3c 02 43 54 3d 5d e5 c4 3c
       0.0025670265 0.0084420135 0.051821716 0.02403515
000190 c4 b9 23 bd 1a 50 d3 bb 32 6d 7d bc c9 74 b8 3c
       -0.03997208 -0.006448758 -0.015467929 0.022516625
0001a0 0d 92 4e 3d 45 c6 ac bd d3 16 b2 bd 2c 6a ba 3d
       0.050432254 -0.084362544 -0.086957596 0.09102282
0001b0 a5 94 ee 3c fa cf 8c 3d d2 19 1b 3d 16 63 7f 3c
       0.029123614 0.06875606 0.03786642 0.015587589
0001c0 be 12 db 3d ab 3c b0 bd b9 7f 9b bd dd ff a4 3d
       0.10696934 -0.086053215 -0.075927205 0.080566145
0001d0 cc 62 f5 bc e6 51 db bc 2a d7 24 3c 81 6e ef 3b
       -0.029954337 -0.02677245 0.010061065 0.0073068743
0001e0 4a 96 4b bd ea ae 27 bc 01 d8 5f 3d 32 1a c5 3d
       -0.049703874 -0.010234574 0.054649357 0.09624137
0001f0 19 25 0f bd 6a 56 9e bd bf 39 e2 bd 66 a5 5a 3d
       -0.03494749 -0.07731326 -0.110461704 0.053380392
000200 6b a7 24 3b 64 78 75 bd 9a 7a e2 3d ad bd 33 3d
       0.0025124203 -0.059929267 0.11058541 0.04388206
000210 46 a8 5f bd 7a e9 44 3d ce 84 b8 bd 30 cf d0 3c
       -0.054603837 0.048074223 -0.090097055 0.02548942
000220 80 ef 07 3d dd 27 02 bc 86 c5 f5 3c 29 75 c4 bd
       0.03318739 -0.007944074 0.030001413 -0.09592659
000230 60 c9 df bd 87 57 1f bc 16 d5 10 3c 74 1f 9d bd
       -0.10927081 -0.009725458 0.008839866 -0.07672015
000240 17 53 58 3d ee 85 af 3c 22 68 bd 3d 6f 27 1b 3d
       0.052813616 0.021426167 0.092483774 0.037879404
000250 bf e4 c8 bc f2 83 e5 bd c1 23 c4 bd 6b e5 67 3d
       -0.024523137 -0.11206807 -0.09577132 0.056615274
000260 64 4f 2d bd 45 56 d7 3c e0 17 a9 3b c5 5f 7e bd
       -0.04231204 0.026286254 0.005160317 -0.06210305
000270 c1 59 14 bd bb 9d c8 bc 32 44 da bd 71 49 ae 3d
       -0.03621841 -0.024489274 -0.106575385 0.085101016
000280 3f 14 e2 3b 13 5a 13 3d df aa 64 bc 8f 83 7b bd
       0.006899386 0.035974573 -0.0139567545 -0.06140476
000290 69 28 49 3d 58 38 c9 3b e8 da 32 3d d1 83 84 bd
       0.049110804 0.00614075 0.043665797 -0.064704545
0002a0 94 ff 75 bc 82 be cd bb 7b 87 cf 3c 80 57 06 bd
       -0.015014548 -0.006278814 0.025333157 -0.03279829
0002b0 7b 20 ad bd d3 57 d3 bd 7d cb 4c 3d b5 83 ca 3d
       -0.08453461 -0.103194855 0.04999875 0.098884024
0002c0 81 a2 4e bc 77 e0 7c bd ec 7a 88 3d 63 eb e5 3d
       -0.012611986 -0.061737504 0.066640705 0.11226537
0002d0 e4 14 e8 bc 21 75 87 bd 91 34 3e bc 8d df d1 bd
       -0.028330274 -0.066141374 -0.0116092125 -0.10247717
0002e0 06 60 5d bd 74 bc dc bd 17 7d d4 3d 0c f5 99 bd
       -0.054046653 -0.10778132 0.103754215 -0.07517442
0002f0 7e 5a 63 bd 95 99 40 bd 41 91 a0 3d b1 ad da 3d
       -0.055506222 -0.047021467 0.07840205 0.1067766
000300 26 50 a8 bd 32 d7 73 3d 10 34 1b bd ac 6a 00 bd
       -0.08218412 0.059531398 -0.037891448 -0.03135173
000310 92 53 3e bd e9 63 dc bd a7 6b 59 bd ab c7 85 bd
       -0.046466418 -0.10761244 -0.05308118 -0.06532224
000320 b8 69 ed 3c 6c 01 c0 3d f1 09 bf bd 5a 29 fe 3c
       0.028981075 0.09375271 -0.09328068 0.031025577
000330 37 12 be 3d 12 90 96 bd b3 99 9d bd ad c2 9d 3d
       0.09280818 -0.07351698 -0.076953314 0.07703147
000340 63 5a 97 bd e3 d1 78 3d ea f1 82 3d de 1b ce bc
       -0.07390287 0.06074704 0.06393798 -0.025159772
000350 57 4b 90 3d 99 35 99 3c 75 b8 9d bd eb 24 b5 3d
       0.0704562 0.018702315 -0.07701198 0.08844932
000360 6a 5d 82 3c 95 17 66 3a b8 34 59 3c a2 6a 67 3d
       0.015913684 0.00087773177 0.013257198 0.056498177
000370 f0 f1 8f bd d9 31 31 bd c8 98 16 3d 9d e7 c4 bd
       -0.07028568 -0.04326043 0.036766797 -0.09614489
000380 88 19 cb bd 14 c8 83 bb f1 15 86 bd c3 2f ae ba
       -0.09916979 -0.004021654 -0.06547154 -0.0013289381
000390 e8 6c e9 bc 11 a6 b6 bd 3e 8d b6 bc 73 b9 b7 3d
       -0.028494313 -0.089183934 -0.022284146 0.089709185
0003a0 d0 9f a6 bd 30 08 73 bc 21 ba ac 3d 28 e8 0a ba
       -0.081359506 -0.014833495 0.08433939 -0.0005298876
0003b0 09 0b c2 3d ca f5 6b bd f0 20 dc bc 16 38 08 3d
       0.09474761 -0.05760745 -0.026871175 0.033256613
0003c0 20 1f 45 bc b9 59 46 3c 1f 72 bd 3d 07 a8 e9 bb
       -0.012031347 0.0121063525 0.092502825 -0.007130626
0003d0 d8 3e 1b 3d b9 8c d9 3d 4b 56 cf bc 4e 85 7b bd
       0.03790173 0.10622544 -0.025309702 -0.061406426
0003e0 26 59 45 bc 89 c7 bd 3c 1c 02 51 3d 05 c6 90 3d
       -0.01204518 0.023166435 0.051027402 0.07069019
0003f0 c5 27 dc 3d 22 94 99 3d bc d7 9a 3d 85 f9 88 bd
       0.10749773 0.07498957 0.07560679 -0.06688217

conv1.bias f4 [10]
000000 d3 80 9a bc 5c 23 7a 3c 69 b0 6a bd ea 06 8b 3d
       -0.018860256 0.015267219 -0.057297144 0.06788428
000010 13 99 55 ba 97 31 5d bd 03 eb 8d bd 6a df 89 bc
       -0.0008148115 -0.05400237 -0.069295906 -0.016830165
000020 c4 9a 4a bd a5 bb 13 bd
       -0.049464002 -0.036067624

conv2.weight f4 [16, 10, 5, 5]
000000 4a 23 a7 bc 91 26 a2 3c fe 3d e7 3c 51 53 ec bc
       -0.02040257 0.01979378 0.028227802 -0.028848322
000010 de 61 37 bd e8 e9 71 3d a6 60 75 3d 29 4d 71 bd
       -0.044771068 0.05906096 0.059906624 -0.058911476
000020 ff 84 53 bd 0d d5 1d bc 3a 45 46 bd ed e8 1c 3d
       -0.051640507 -0.009633315 -0.048405863 0.038308073
000030 95 82 5b bd c3 b0 9c bc 86 e1 18 3d 3e e6 a6 bc
       -0.05359133 -0.019127255 0.03732445 -0.02037346
000040 1f 82 3a bd 3a fb 3d bd dd 71 b8 ba 3d 03 4e 3d
       -0.04553425 -0.046382166 -0.001407202 0.050296057
000050 92 6d 35 3d a0 36 e0 bb 4f 90 9f bc 22 f3 a0 3c
       0.044293948 -0.0068424493 -0.019477991 0.019647185
000060 ce 58 4f 3d b9 46 2e bd 98 e4 07 3c 72 92 19 bb
       0.0506218 -0.042547915 0.008294247 -0.0023433235
000070 3b e0 2c 3c 27 0b 38 bb ee 92 51 3d 68 53 bd bc
       0.010551508 -0.002808282 0.051165514 -0.02311106
000080 40 60 1c bc 2d bb 24 3d 96 4e 63 bd b2 2f 4c bd
       -0.009544432 0.040217567 -0.055494867 -0.049850173
000090 0a 52 5b bd 7b b0 80 3d dd c6 c6 3b b7 af 25 3d
       -0.053545035 0.06283661 0.006066187 0.040450778
0000a0 da 48 3d 3d d6 b7 17 bd 3b a8 3c bd 7a 7c d8 3c
       0.046212055 -0.037040554 -0.046058875 0.026426543
0000b0 e2 f5 4b 3c b3 2a 5b 3d ef da 62 3d 33 84 36 bd
       0.01244876 0.053507518 0.055384573 -0.04455967
0000c0 9a bd c1 3c fc 1d 68 bd e4 82 42 bd df 79 1e 3b
       0.02364998 -0.05666922 -0.04748811 0.0024181528
0000d0 02 d1 98 bc 30 93 20 3d a6 ef 0c bd 9d de 5d 3c
       -0.01865435 0.03920287 -0.034408234 0.013541845
0000e0 2a 96 79 bc f7 ff de bb 6f 6f bb bc 56 bf 6e bd
       -0.015233556 -0.0068054157 -0.022880284 -0.05828794
0000f0 e8 8e e2 bc 50 88 e3 bc 62 c3 45 bd 44 25 f6 3c
       -0.027656034 -0.02777496 -0.048282035 0.030047067
000100 e6 44 66 3d eb f0 33 bd e4 d0 6f 3d 3a a6 e2 3a
       0.05621805 -0.04393093 0.058548823 0.0017291971
000110 cc 32 e6 3c 1d c8 59 bd ae 74 ba ba 47 2f 19 bb
       0.028100394 -0.05316936 -0.0014225447 -0.0023374127
000120 7d 0a 13 3c fc 02 49 bb dc f8 64 bc ce 07 ed 3c
       0.008974669 -0.0030671945 -0.013975348 0.028934386
000130 0c f5 74 bd 75 07 4c bd 03 8e ab bc d8 1f e2 bc
       -0.059804007 -0.0498118 -0.02094174 -0.027603075
000140 7d a7 f6 3c da 7a 46 bd 4b 52 01 3d 81 6e 1f bd
       0.030109162 -0.048457004 0.03157262 -0.038923744
000150 92 fb a5 3c 0c db ac 3c 80 2d ca 3c a7 0f 8a bc
       0.02026156 0.021100543 0.0246799 -0.016853167
000160 04 2f 16 bd 2a 2e b3 3b 3a 69 65 bd 34 63 cc bc
       -0.03666593 0.0054681497 -0.056008555 -0.024949647
000170 7f 5f 1b bd 67 b8 6e 39 fd e6 3a 3d 2f d2 3f bc
       -0.03793287 0.00022766144 0.045630444 -0.0117078265
000180 91 72 47 3d 4f 83 9e 3c 63 bc 96 3b 96 51 3c bc
       0.048693243 0.019349722 0.004600094 -0.011494061
000190 8c 0f 05 3d 44 0a 31 ba 9c 9e 7e bd 1a 26 3c bc
       0.03248553 -0.0006753544 -0.06216298 -0.0114836935
0001a0 36 e8 38 bd ef 52 92 3c 88 3a 2e 3d 4b a0 1e bc
       -0.04514333 0.017861811 0.04253629 -0.0096817715
0001b0 38 7f b6 3c 09 9f 0c bd 04 95 4d 3d 0d 0c 6a 3c
       0.02227746 -0.034331355 0.05019094 0.0142851
0001c0 72 80 32 bd e2 2b 40 bd b6 34 51 bb 01 b3 dc bc
       -0.043579526 -0.04691685 -0.0031922287 -0.026940824
0001d0 4e 4c bd bc ad 98 da bb e2 ed 83 bc a7 10 dc 3c
       -0.023107674 -0.0066710324 -0.016104642 0.02686341
0001e0 8e f0 4c 3d 4e 41 5c bb 2a d1 66 3d ff ef 96 bc
       0.0500341 -0.003360826 0.05635182 -0.018424986
0001f0 8c c8 1a 3d 6b e2 e8 bb 7d 23 a3 bc 43 74 19 bd
       0.037788913 -0.0071070693 -0.019914383 -0.03746439
000200 b3 61 a0 3c d7 50 04 bd 52 21 1c bd 6c 41 80 3d
       0.019577837 -0.032303657 -0.038117714 0.06262478
000210 31 43 f4 3b 1e b3 10 3d 64 37 93 bb b8 5a 5b bd
       0.007454299 0.03532707 -0.004492687 -0.053553313
000220 e8 18 29 3d 60 24 54 3d 34 3c 25 bd b5 71 0e bd
       0.041283518 0.051792502 -0.040340617 -0.03477641
000230 0f 9b 2a 3d 96 7d c2 bc 59 5d 82 bb 89 b0 e9 3c
       0.04165178 -0.023741525 -0.003978413 0.028526561
000240 7f b1 76 bc 6f 48 69 3d 28 c9 8c 3c 80 78 0b 3d
       -0.015056967 0.056953844 0.017185763 0.034050465
000250 b5 d6 0d 3d 47 e1 10 3d 68 0f a3 3c 6b 20 dc bc
       0.03462859 0.03537109 0.019904807 -0.026870927
000260 4a 68 9e 3b 1d 94 07 3c 94 eb 3f bc 38 c4 6c bd
       0.0048342096 0.008275059 -0.011713881 -0.057804316
000270 1b b9 a1 3c 58 6b c5 bc 84 ed 29 3d 66 96 20 bc
       0.019741585 -0.024099037 0.04148628 -0.009801483
000280 37 22 76 3d dd 7e 16 bd b9 ca 3c bd da 9d 4f 3d
       0.060091224 -0.03674208 -0.04609177 0.05068765
000290 d7 79 23 bd b2 94 61 bd c8 ff 5b bc 0f b3 6e 3d
       -0.039911117 -0.055073448 -0.013427682 0.058276232
0002a0 11 7c 08 3c 4e a7 60 3d 3e 97 e5 3c 68 1f 02 3d
       0.008330361 0.054847054 0.02802622 0.031768233
0002b0 5b 52 46 bd 17 94 2e 3c 09 4f c9 bc 79 4e 41 bd
       -0.048418384 0.010655425 -0.02457382 -0.047193978
0002c0 31 41 be bc 72 5a 60 3d 7a f7 7d bd 08 15 71 bb
       -0.023224445 0.054773755 -0.06200359 -0.0036786217
0002d0 9f 20 36 3a 18 65 e7 bc ef 6b 29 bd f7 f0 61 bd
       0.000694761 -0.028246447 -0.0413627 -0.055161443
0002e0 9a 28 34 3d f8 f4 d4 3b 12 4d 38 3d 0e 6b 0f bc
       0.043984033 0.006498929 0.044995375 -0.008753551
0002f0 f9 c1 7e bd 6d 4a 6a bd 72 88 62 3d 33 0c 2e 3d
       -0.062196705 -0.057199884 0.055305906 0.042492103
000300 04 b5 39 bc 00 00 1c bd 7d 84 cd 3c 86 e6 4d bd
       -0.011334661 -0.038085938 0.02508759 -0.050268672
000310 80 5c 1b 3c fa 06 05 3c 5e 1d ec 3c eb 67 1f bd
       0.009482503 0.008119339 0.028822597 -0.038917463
000320 4f 21 21 3d 05 f9 64 bc a5 68 b0 bc cc 3a 81 bd
       0.039338406 -0.0139753865 -0.021534273 -0.06310043
000330 26 3b 98 3a 7e c8 e3 3c 21 31 dc bc 7f b3 05 3d
       0.0011614307 0.027805563 -0.026878895 0.032641884
000340 07 88 9a 3b 56 d4 86 bc 09 07 36 bd 10 cc 5a 3d
       0.0047159228 -0.016458672 -0.044440303 0.053417265
000350 7a 29 8b bc a3 b4 64 3d 47 25 58 bc 71 c3 0d bd
       -0.016987551 0.05583633 -0.013192481 -0.034610216
000360 7c 8c bd 3c b4 7e 27 bd 39 33 b3 bb 77 c6 e1 bb
       0.023138277 -0.040892318 -0.0054687527 -0.006890114
000370 84 77 d1 bc 35 3f c2 bc 4d 57 c7 bc 6c 52 3f bd
       -0.025569685 -0.02371178 -0.02433362 -0.046709463
000380 1b ff 29 bc 51 9e e0 bc 2c 23 6c 3d fc 81 7e bc
       -0.010375763 -0.027419241 0.05765073 -0.01553392
000390 b3 8a 7f bd 85 54 7a 3d 9a 92 09 3d 2c e1 db bb
       -0.062388133 0.06111576 0.033587076 -0.006710192
0003a0 69 56 0e bd a0 48 d4 3b 9a 67 b8 3c fd 87 96 bc
       -0.034750376 0.006478384 0.022510339 -0.018375391
0003b0 90 53 f0 bb c2 14 34 3d 4d 53 15 3d f8 57 8e bc
       -0.00733418 0.04396511 0.036456395 -0.017375931
0003c0 b5 ca b9 bc 5c b4 53 bd a0 f6 03 bd 36 14 4d 3d
       -0.022679666 -0.051685676 -0.03221762 0.050068103
0003d0 e1 58 5b 3d 96 d7 02 bd c9 a8 23 bd e2 67 f1 bc
       0.05355156 -0.03194388 -0.039955888 -0.02946848
0003e0 e0 91 7f 3c 76 0d 17 3d a0 a7 cf 3c 9a f1 ea bc
       0.015598744 0.03687807 0.025348485 -0.028679658
0003f0 fd c6 e3 bc b7 4c a6 3c 2b 4b 5a bd 39 4e 3f bc
       -0.027804846 0.020300252 -0.053294342 -0.011676365

conv2.bias f4 [16]
000000 bc 2a 05 bd 71 61 26 bc 9e 48 16 bc 27 90 77 3c
       -0.032511458 -0.010155068 -0.009172587 0.015110052
000010 2a e6 60 bc 51 bc 5c bc 57 72 fa 3c 37 33 21 bc
       -0.01372675 -0.0134726325 0.0305721 -0.009838871
000020 4f 4c 25 bd 75 84 02 bd 37 68 3a 3d b4 c0 8e bc
       -0.040355977 -0.031864602 0.045509543 -0.017425872
000030 cd 1d 54 3d bf e1 7b bb 6e b7 19 bd 93 90 49 bd
       0.051786233 -0.0038434116 -0.037528448 -0.049210142

fc1.weight f4 [120, 400]
000000 33 14 66 3b 73 33 68 3c 00 c0 52 b9 2d 57 79 bc
       0.0035107255 0.014172423 -0.00020098686 -0.015218538
000010 90 53 be bc 98 b6 39 bd c0 31 81 bb 7a 3d 25 3c
       -0.023233205 -0.04534015 -0.0039426982 0.010085458
000020 b8 fe 16 3d a0 08 0e 3c a0 0f 35 bd 67 a7 8e bc
       0.036864012 0.008669049 -0.044204354 -0.017413808
000030 a0 af 1f bd a5 00 28 bd b0 c6 d0 3c 07 b7 34 bd
       -0.03898585 -0.04101624 0.025485367 -0.04411986
000040 0d b9 f2 bb 0d 60 e2 3c 47 a2 09 3c 40 fc 3d 3d
       -0.0074073137 0.027633691 0.008400506 0.046383142
000050 75 e0 00 3d e5 e0 4a bd 7d 4d 42 3d 8d ee d7 3b
       0.03146406 -0.049530882 0.04743718 0.0065897168
000060 0d ea 3e bc 43 bc 4c bd cd bf b3 bb 7a cb 0c 3c
       -0.011652482 -0.049984228 -0.005485511 0.0085934345
000070 cd 4c e1 b9 80 97 10 bc d0 7c ee 3c 8d 22 b5 bb
       -0.00042972565 -0.008825183 0.02911225 -0.0055278004
000080 7d 06 25 3d 42 23 49 3d 40 2e d8 3b 8a 48 89 bc
       0.04028939 0.04910589 0.0065973103 -0.016758222
000090 37 bf ab bc 10 04 fe bc c0 97 cc bb 87 bc 34 3d
       -0.020965202 -0.031007797 -0.006243676 0.044125106
0000a0 67 f0 6b 3b cd 1e 5c 3b 3f 6b 11 3d 1a c3 83 bb
       0.0036001445 0.0033587695 0.03550267 -0.0040210607
0000b0 f0 bc f5 bc 40 b2 ac 3c d7 f9 a5 bc 03 ed b0 3c
       -0.029997319 0.02108109 -0.020260734 0.021597391
0000c0 6a 3d 83 bc 00 0b 03 3c e7 48 70 bc 60 23 6b 3c
       -0.016020495 0.007998228 -0.014665819 0.014351696
0000d0 ef 98 37 bd 53 54 78 bc 00 17 fb ba 6a 0c ff 3c
       -0.044823583 -0.015156823 -0.0019156635 0.03113385
0000e0 cd 24 f1 b9 6d 67 42 3c 58 2d 20 3d 0d 22 75 3c
       -0.0004599452 0.011865479 0.039105743 0.014961732
0000f0 cd 53 c4 3c 57 91 ca bc f3 b7 df 3b 17 ce 44 bd
       0.02396574 -0.024727507 0.0068273484 -0.048048105
000100 e8 ae 2e 3d 38 3e 3c bd 27 7a c5 3b 6a a6 98 bc
       0.042647272 -0.045957774 0.0060265246 -0.01863404
000110 b3 49 18 3c 8f e4 0a 3d 7d 06 f9 3c cd 64 1e bd
       0.009294915 0.033909377 0.030398602 -0.03867035
000120 7d 40 3e 3d f7 d8 e2 bc 60 e2 fe 3c a3 39 96 3c
       0.04644822 -0.027691348 0.031113803 0.01833803
000130 7d 23 eb 3c f5 cb 2e bd 1a 84 e7 3c 9f a0 2b 3d
       0.028703446 -0.042674977 0.028261233 0.041901227
000140 d3 e7 f1 bc bd 56 d3 bc 93 72 47 bc 0d ca 54 3c
       -0.029529488 -0.025798196 -0.012173313 0.012987626
000150 cd 4c c6 3a 00 01 52 3b 33 a7 c5 3b 2f fa 31 bd
       0.001512909 0.0032044053 0.0060318946 -0.043451484
000160 ed 70 b3 bc e0 7c f9 bc 73 f8 05 3d bb 5b 4a 3d
       -0.021904433 -0.030455053 0.032707643 0.049403887
000170 33 0a 9e bb 00 d4 13 ba da 0a 4b 3d 07 34 9b bc
       -0.004822993 -0.00056391954 0.049570896 -0.018945707
000180 40 c5 d9 bc 80 58 94 bc e0 c9 19 3c 4a 16 26 bd
       -0.026583314 -0.018108606 0.00938651 -0.0405486
000190 a5 25 4c bd da 4d 23 3d 77 63 10 3d 80 d4 2a bc
       -0.049840588 0.039869167 0.035251107 -0.0104266405
0001a0 35 01 48 bd 15 5e 4b bd d7 bb da bc 4d bf 96 3c
       -0.048829276 -0.04965027 -0.026700897 0.018401766
0001b0 cf e4 2e bd 77 f0 a4 bc 7a 18 b4 3c fa 20 4c 3d
       -0.042698678 -0.020134194 0.021984328 0.049836136
0001c0 b3 4d 1e 3c 10 31 0a bd 23 b9 3c 3d e3 bb 95 3c
       0.00966208 -0.033738196 0.046074998 0.018278068
0001d0 6f f6 26 3d d0 7a 8a bc 9a 4a 3d 3b 10 43 dc 3c
       0.04076236 -0.016904265 0.0028883577 0.026887447
0001e0 1a 6c b9 3b 1a 1c 0c 3b 30 0a 27 3d 23 e4 f8 bc
       0.0056586387 0.0021379055 0.0407812 -0.030382222
0001f0 40 28 aa bc 10 61 09 bd 4f e5 00 3d 68 dc 16 bd
       -0.020771146 -0.03353983 0.031468686 -0.03683129
000200 d3 41 74 bc 2d 9f 16 bc 62 4a 20 bd 67 6a 02 bb
       -0.014908272 -0.009193224 -0.039133437 -0.0019899847
000210 53 71 7b 3c dd 65 d9 3c 4d 8d 28 bc 7d 35 c3 3c
       0.015346843 0.02653783 -0.010287595 0.023829216
000220 d0 ae 43 bd e0 55 9e bc b7 c4 4c bd 7a 64 0c bd
       -0.047774136 -0.019328058 -0.04999229 -0.03427551
000230 62 c7 43 3d a8 08 2d 3d 67 cc bd 3a 60 96 8b 3c
       0.04779757 0.042244583 0.0014480472 0.017039478
000240 7a 34 8b bc ba ee 74 3c a0 df 35 bc 60 9e fe bc
       -0.016992796 0.014949495 -0.01110068 -0.031081378
000250 13 40 d7 bc 57 0c 12 bd 37 09 a4 3c b3 77 e4 bb
       -0.02627567 -0.0356563 0.020023925 -0.006972277
000260 0d 2e 8b 3c 73 b6 af 3c c7 cf 03 bd 7d 4b f3 bc
       0.016989732 0.021449303 -0.032180574 -0.029699082
000270 4f 57 06 bd c0 e8 a4 bb b3 39 8e bc d3 4a 31 3c
       -0.032798108 -0.005032629 -0.017361498 0.010821062
000280 ba 4f 52 3c d0 56 9b bc e7 a6 22 bb db 3c 31 3d
       0.012836391 -0.018962294 -0.002481872 0.043270927
000290 67 b0 67 bc b8 20 0e bd c8 ff 20 bd c0 c6 f7 bc
       -0.014141179 -0.03469917 -0.039306432 -0.030246139
0002a0 63 fe d3 3c f3 e7 7c bc 9d 16 83 bc 60 47 9a 3c
       0.025878137 -0.01543616 -0.016001994 0.018832862
0002b0 63 da 80 bc 67 16 31 3c e0 b3 81 3c 33 86 94 ba
       -0.015729135 0.010808564 0.015832841 -0.0011331498
0002c0 c3 8a 30 3d 2d f3 ae bc 5a be 03 bd 00 4b 2c 3c
       0.043101083 -0.02135619 -0.032163955 0.010515928
0002d0 4d aa 54 bc 5a bf ea 3c 00 52 4a 3d fd b0 bb bc
       -0.012980056 0.028655697 0.049394608 -0.022911543
0002e0 cd 31 f8 3a 67 0a 0a 3b b0 d3 27 bd 17 23 0e 3d
       0.001893574 0.002106333 -0.040973365 0.034701433
0002f0 5f eb 2f bd d3 52 fa 3c 5a 43 7a bc 52 cf 0e bd
       -0.042949077 0.030557072 -0.015274847 -0.034865685
000300 90 3d 1c 3d f3 ea 0f bc 40 cd db bb 2d 27 4c bc
       0.038144648 -0.008784044 -0.0067078173 -0.012460512
000310 67 b3 0a 3b 4b f1 4a bd af 58 25 bd 8a 8c b0 3c
       0.002116406 -0.04954652 -0.04036778 0.02155139
000320 cd b1 a5 3a d3 14 22 3c b3 0d 30 3c 2d cb a5 3c
       0.001264149 0.00989266 0.010745454 0.020238483
000330 5d f8 a9 bc 63 b1 2a 3d 5a d6 06 3d 20 4c 2a bc
       -0.020748312 0.041673075 0.032919265 -0.010394126
000340 d3 00 2c bd a0 8a 1a 3c af 25 47 3d df 6b 04 bd
       -0.041992974 0.009432465 0.048619922 -0.032329436
000350 87 c6 00 bc 5d 5d 39 3d b3 fa 14 bd 57 f3 35 bd
       -0.007859833 0.045255054 -0.036371898 -0.04442152
000360 bd 78 04 3d 8d 96 4c 3c 28 c0 24 3d 53 66 2b 3d
       0.032341707 0.012487066 0.040222317 0.04184563
000370 4a bb b6 bc a0 fc c6 3c 5a 47 28 bd 07 f1 61 3c
       -0.022306103 0.024290383 -0.04108367 0.013790376
000380 5d 9a 23 bd 7a b0 dc 3c 17 75 9a bc a7 ab ef bb
       -0.039942134 0.02693962 -0.01885466 -0.0073141637
000390 d3 54 f3 3c 80 f4 17 3c 5a 24 cf bb 58 1f 36 3d
       0.029703533 0.009274602 -0.006321472 0.044463485
0003a0 23 0e 29 3d 0d 4a 0e 3d 73 0e 65 3c 7d 86 d3 3c
       0.041273247 0.03473859 0.013980496 0.025820965
0003b0 cd 34 2c 3d a2 f4 0d 3d b3 82 2c 3c 9a c4 71 bb
       0.042042542 0.03465713 0.010529208 -0.0036890865
0003c0 cd ce d4 ba 00 e3 72 bb 77 b1 ca bc 93 9c e4 3c
       -0.0016235948 -0.0037061572 -0.024742825 0.027906692
0003d0 b3 76 15 3c cd 44 b4 3a 87 c4 24 bc 9a 9a 1e bb
       0.009122538 0.0013753414 -0.010056621 -0.0024201036
0003e0 37 d0 f5 3c 9a ec 0d bc b3 ce c0 3c d7 75 c2 bc
       0.030006511 -0.008662367 0.023536062 -0.023737831
0003f0 73 16 b6 3b 4d 62 c7 3b bb f3 02 bd c7 12 d6 bc
       0.0055568754 0.0060847164 -0.03197072 -0.026132

fc1.bias f4 [120]
000000 8d 4a 9a 3b 92 34 35 bd f3 6c 35 3d 27 01 f8 bb
       0.004708594 -0.044239588 0.044293355 -0.0075684967
000010 ff 78 2c 3d 40 40 ed bb cd 0a ed 3b 80 0d 72 bb
       0.04210758 -0.007240325 0.0072339536 -0.0036934316
000020 03 f6 af 3c 9a d0 cc ba 4a b8 16 bd b2 40 0a 3d
       0.021479612 -0.0015626133 -0.036796845 0.033753105
000030 8a d3 49 3d 1a 11 a1 bb 67 d5 2b 3d 80 00 06 bd
       0.049274005 -0.0049153687 0.041951563 -0.03271532
000040 9a 43 19 3d 07 de 21 3d b8 fd 45 3d 67 63 58 3c
       0.037417985 0.039518382 0.04833767 0.013207293
000050 70 9a 82 bc 55 46 1e 3d 9f 8f 0a bd 98 e4 41 bd
       -0.015942782 0.038641293 -0.033828374 -0.047337145
000060 6b 94 2f 3d b2 86 3e 3d b3 2c 88 bc 3b 32 28 bd
       0.04286615 0.046515174 -0.016622877 -0.04106353
000070 2b 5b 46 3d 6d c8 97 3c c0 d2 fc bc 65 b9 3b bd
       0.04842679 0.018528188 -0.030862212 -0.045831103
000080 00 ba 7c ba 67 df 2b 3c 9a 34 f1 3a 17 c5 dc bc
       -0.0009640753 0.010490275 0.0018402517 -0.026949449
000090 ef da 18 bd e0 d0 19 bd 7a bd 8e bc 4f fe 4a 3d
       -0.037318166 -0.037552714 -0.017424334 0.049558934
0000a0 67 64 93 bb 97 7e 36 3d a0 4f ef 3c db d2 37 bd
       -0.004498053 0.04455432 0.029212773 -0.04487882
0000b0 6a 90 c4 3c 87 ba 6c 3c bd e5 3a bd 5a 15 e4 bb
       0.023994643 0.014448768 -0.04562925 -0.006960553
0000c0 2d 59 ff bc f0 26 f2 3c 2d aa 8d 3c 0a 00 9b 3c
       -0.031170452 0.029559582 0.01729306 0.018920917
0000d0 bd 38 df bc a7 66 4a bc b3 63 49 3c 0d d6 d9 bb
       -0.027248735 -0.012353576 0.012291837 -0.0066478313
0000e0 93 2e 25 3d 70 4a 89 bc 97 07 e4 bc b0 06 b2 3c
       0.04032762 -0.016759127 -0.02783565 0.021731704
0000f0 67 fc ef ba 93 80 33 bd 8a da 99 3c 33 59 73 3a
       -0.0018309475 -0.04382379 0.018780965 0.0009283006
000100 63 82 3a 3d aa b0 e0 bc 7a db 8c 3c 93 c4 e9 3c
       0.045534503 -0.02742799 0.017194498 0.028536117
000110 9d f4 a4 3c cf 3b 3b bd fd e6 8b bc 8d fc 88 3c
       0.020136172 -0.045711335 -0.017077917 0.016721988
000120 17 12 c8 bc 80 44 af bb 32 4b 48 bd 27 32 8c 3b
       -0.024422688 -0.005348742 -0.048899837 0.0042784396
000130 cb d0 0b 3d 9a 49 a4 38 a3 42 91 3c da 88 fd bb
       0.034134667 7.833839e-05 0.01773197 -0.0077372612
000140 8d 85 c0 bb 70 fb d0 3c 80 7c 6d 3c 40 25 14 3d
       -0.0058752955 0.02551052 0.014495015 0.036168337
000150 e7 9e c4 3b 12 f6 0c 3d 23 1a 85 bc 95 ce 0f bd
       0.006000388 0.03441436 -0.016247815 -0.03510912
000160 32 cb 13 bd 67 14 3e ba 87 df 6c bc 0b 8a 33 3d
       -0.036082454 -0.0007250965 -0.01445759 0.04383282
000170 e0 20 21 bd c7 ab 45 bd 00 cc 35 bb b3 69 bb bc
       -0.039337993 -0.048259523 -0.0027740002 -0.02287755
000180 f3 89 82 3b ca 98 ea bc 07 41 1a bd ba 7d 18 3c
       0.00398373 -0.028637309 -0.03765967 0.009307319
000190 6d bb 09 bd 0d c7 52 3c 00 0f 71 3c 38 66 15 3d
       -0.03362601 0.01286484 0.014713049 0.036474437
0001a0 cd 06 68 ba e7 11 1a 3d e0 ce 06 3c 3a 65 7b bc
       -0.0008851111 0.03761473 0.008228034 -0.0153439585
0001b0 6d a7 3a 3c f7 90 45 3d a0 92 50 3c 7a d3 73 3c
       0.0113924565 0.048233952 0.012730271 0.014881963
0001c0 40 95 92 3c aa 6e 24 3d 72 fc 2e 3d 9a 38 ff bc
       0.017893434 0.0401446 0.04272122 -0.03115492
0001d0 ed b3 b6 bc 90 c2 f5 bc 78 c1 10 bd 9a 4c 40 bb
       -0.022302592 -0.030000001 -0.035340756 -0.0029342533

fc2.weight f4 [84, 120]
000000 a5 4f 8c bc 82 0f 7b bd 70 a1 8f 3c 52 53 02 3d
       -0.017127821 -0.061294086 0.017533034 0.03181774
000010 a5 a8 0b bd a6 66 85 bd ec b1 55 3d ea 15 51 3d
       -0.03409638 -0.06513719 0.052171633 0.05104629
000020 25 19 92 3b 12 10 1c 3d dc e3 59 3d 88 9c 93 3d
       0.004458564 0.038101263 0.05319582 0.0720759
000030 a5 ee 8e bd 98 d8 92 bd 64 d2 48 3d ec db ab 3d
       -0.069791116 -0.07170218 0.04902877 0.08391556
000040 fc e1 18 bd a5 17 2d 3d 6f e8 b2 3d 9e 6a 01 bd
       -0.03732489 0.042258877 0.087357394 -0.03159582
000050 7f 62 9a 3d 5a 10 b5 3d d7 9e 57 bd 03 a9 2b bd
       0.07538318 0.088410094 -0.052641716 -0.04190923
000060 4d 99 3d bc 5b 75 75 3d 93 b9 25 3d 27 67 3e bc
       -0.011572194 0.059926372 0.04046018 -0.011621273
000070 92 a5 57 3d 84 0e af bd 0e 8c 8c bc b3 ce 80 3c
       0.052648135 -0.085476905 -0.017156627 0.015723562
000080 f2 67 87 bd 0e b2 99 3d 1b 12 9d bd 32 06 c2 3c
       -0.06611623 0.07504664 -0.07669469 0.023684595
000090 8c 2d 5d bc 53 53 96 bd 37 c8 8e 3d 3f bc 26 3c
       -0.013499629 -0.073401116 0.06971782 0.010176717
0000a0 ff 86 ea bc 62 cf 49 bd f6 a6 da 3b 89 9c 91 3a
       -0.028628824 -0.04927004 0.0066727353 0.0011109273
0000b0 11 ff f7 bb a4 e5 60 3d e3 4d 33 3c da 03 8b bd
       -0.007568248 0.054906502 0.010943863 -0.06787844
0000c0 bb eb 96 3c d7 28 69 bc 14 8a 85 bc 01 3d df 3b
       0.018422952 -0.014230928 -0.016301192 0.006812692
0000d0 b3 be a8 3d 58 96 6e 3d 1b 93 8c 3b 15 de 11 bd
       0.08239498 0.058248848 0.0042899973 -0.035612185
0000e0 ce ed b3 3d f2 5e b8 bd 17 48 fc 3c 0e c6 64 3d
       0.08785592 -0.090024844 0.030796094 0.055852942
0000f0 c7 16 93 bd 88 64 8d 3d f4 fe 8d 3d 22 3d b9 bc
       -0.07182079 0.069039404 0.06933394 -0.022612158
000100 3c 59 df 3c 16 8a 3f 3c 0f 0c 2c bd 75 da 9d 3d
       0.02726423 0.011690637 -0.042003687 0.07707683
000110 03 66 94 bd b1 26 bd bc 26 3d 9c bd e1 63 45 3c
       -0.0724602 -0.023089739 -0.07628851 0.012047739
000120 3a ff 1e 3c 43 8f 3e 3d 3a be 75 3d 84 22 90 bc
       0.009704405 0.046523344 0.059995867 -0.017594583
000130 55 d4 2c 3d f7 6a 86 bc ac 78 4a 3c 9d c7 9e 3d
       0.042194683 -0.016408427 0.012357872 0.07752917
000140 7a e8 8a 3d f2 1a aa bd a4 8f 9d bd 98 f8 52 3c
       0.06782623 -0.08305921 -0.07693413 0.012876652
000150 f2 f9 62 bd 4f 0f 8b bd e5 14 a6 bc 43 10 74 3c
       -0.055414148 -0.06790029 -0.020273635 0.014896455
000160 01 fd 26 bd 0d 43 86 3c 07 50 27 3d 45 37 0f bc
       -0.040768627 0.016389394 0.040847804 -0.008741205
000170 45 e5 3b 3d 33 58 23 3c 27 9a 8a bd 93 41 fd 3c
       0.045872945 0.009969759 -0.067676835 0.030915057
000180 38 ca 6e bd 09 ef 09 bd 4b 63 56 bd ef 1c 8d 3d
       -0.05829832 -0.033675227 -0.052340787 0.06890284
000190 08 b7 50 3d af 98 a6 bd be 02 15 bd 2f 1f 65 bd
       0.050955802 -0.08134591 -0.03637957 -0.055937942
0001a0 ed 2b 99 bd 62 ca 86 bc 0d fb 8d 3d 1b b3 a7 3d
       -0.07479081 -0.016453926 0.0693265 0.081884585
0001b0 2c 78 75 3d 92 6c 01 3d de a7 15 bd e4 b8 d0 3c
       0.059929058 0.03159768 -0.036537044 0.025478788
0001c0 f4 ed ba 3d 58 92 b9 3d bb 74 68 bc cc 57 b4 bd
       0.09127417 0.09061116 -0.014187987 -0.088058084
0001d0 69 f5 88 3d 7f 33 a2 3d 3a 0f 2a 3c ff 61 65 3d
       0.06687433 0.07919978 0.010379607 0.05600166
0001e0 0e 7c e0 bc 02 7a 77 bd 8f 33 7b 3d 6d 54 25 3d
       -0.027402904 -0.06041909 0.061328467 0.040363718
0001f0 14 18 b8 3c 48 98 55 3d dd a0 90 bd 93 04 4f 3d
       0.022472419 0.05214718 -0.07061932 0.05054147
000200 db 49 99 bb 72 87 a9 3d 72 de 9d bd 2b 59 78 3d
       -0.0046779937 0.08277787 -0.07708444 0.060631912
000210 98 ff 23 3d 7a f2 d2 bc f7 93 17 3d 6e 81 08 bb
       0.040038675 -0.025750387 0.037006345 -0.00208291
000220 54 18 b2 bd 57 5d 89 bb 0e 1d 2a bc 4a d4 7e bd
       -0.086960465 -0.004192035 -0.010382904 -0.062214173
000230 cb 91 16 3d bb b7 43 3d 91 0c 80 bd b5 9c 88 bd
       0.036760133 0.04778264 -0.06252397 -0.066705145
000240 70 03 a1 3d ff dc 69 ba 0f 7d 60 3c ac 32 08 3d
       0.07861984 -0.00089211756 0.013701691 0.03325145
000250 3d 01 55 3d 9f 5d b2 3d d7 19 ad bd 95 6f 47 bd
       0.052003134 0.08709263 -0.08452194 -0.048690397
000260 5a 36 9f bd 95 8e a3 bc 21 6c 1f 3d 32 29 83 bc
       -0.077740386 -0.01996545 0.03892148 -0.016010854
000270 ac a0 40 bd f0 5c bd 3c f2 cb 5e bc 64 82 a2 bd
       -0.04702823 0.023115605 -0.013598429 -0.07935026
000280 dd 68 aa bd f5 cb 96 3d 5b 2f 9f 3d ad bb 66 bd
       -0.08320782 0.073631205 0.07772704 -0.056331325
000290 f4 dd 17 3d e1 6b b2 bd f5 75 26 bd bb cb 22 3d
       0.037076905 -0.087119825 -0.040639836 0.039745074
0002a0 3c 49 8b 3d 6d 39 9a bd 03 06 50 3d 78 de af 3d
       0.06801078 -0.07530484 0.050786983 0.085873544
0002b0 d8 50 fa 3c 96 d7 82 3d 3a ff 17 bd 2b 14 6e bd
       0.030556127 0.06388776 -0.037108637 -0.058124702
0002c0 63 fa ec 3b 17 cd 80 3d be 74 56 bc 56 4c ac bd
       0.007231997 0.06289118 -0.013089357 -0.084129974
0002d0 36 fb 98 3c 5d 81 93 3c 3a bf 9c 3d fb c5 af bd
       0.018674474 0.018006021 0.07653661 -0.08582684
0002e0 7c be 8f 3d 70 8d 94 3d bc db 8a 3d 72 b8 f3 bb
       0.07018754 0.072535396 0.06780192 -0.007437759
0002f0 f7 60 a1 bd 26 b4 ae bd 77 12 6d 3d 77 5d 8e bd
       -0.07879823 -0.08530454 0.057878938 -0.06951421
000300 88 09 b0 bd 2a 5d a7 bc cb 3e 34 3c e0 da a3 3d
       -0.08595568 -0.020430166 0.011001299 0.080007315
000310 ba 5b 82 3d 85 2b f3 bc 36 a8 35 bd df 6d b1 3d
       0.06365152 -0.029683838 -0.04434987 0.086635344
000320 af 5d 46 bd 4e 47 0c 3d 32 53 a7 3d 68 59 a8 bd
       -0.048429187 0.03424769 0.08170165 -0.08220178
000330 06 6b 37 bc 7e 4c d2 3c 47 6b 8a bb 64 4d 51 3d
       -0.01119495 0.02567124 -0.0042242142 0.051099196
000340 c8 88 2c bd e3 28 54 3d 68 b5 b9 bd f0 ca 55 3d
       -0.042122632 0.051796805 -0.090678036 0.05219549
000350 8e a5 0f 3d 7e c2 67 3c 2a 72 8e bd d9 54 2b bd
       0.035069995 0.014145492 -0.06955369 -0.041828964
000360 3a 1d b3 3d ff 4c 0f ba c6 c6 32 bd 22 0f ac bd
       0.08745809 -0.00054664904 -0.043646596 -0.08401324
000370 6f 43 1a bd 2f d0 b8 3b 87 3e 5d bb fb 7a 39 bc
       -0.037661966 0.005640052 -0.0033759193 -0.011320825
000380 6e d9 2f 3d 6b de 44 3c 35 b0 11 bd dc 58 a7 3d
       0.042931966 0.012015919 -0.035568435 0.081712455
000390 bf 5e 93 bd dc 6e 31 3c d9 a8 a9 bb 9c da 86 3c
       -0.07195806 0.010829654 -0.005177599 0.016461663
0003a0 ef 90 5c bd 79 b2 af bc 7a d5 23 bd d6 9b 53 bd
       -0.053849157 -0.021447407 -0.03999851 -0.05166229
0003b0 0a 65 48 bd 9e 33 b5 3d fb 62 43 bc 50 c0 71 3c
       -0.048924483 0.08847736 -0.011925454 0.0147553235
0003c0 e2 4c b6 ba 7c 56 1f bd 8e ab ea 3c 52 8c 8d 3d
       -0.0013908411 -0.038900837 0.028646257 0.069115296
0003d0 7f 34 98 bd 85 83 b6 3c 60 0d 85 3d 9b d3 87 bd
       -0.07431888 0.02227951 0.06496692 -0.066321574
0003e0 b8 6f d6 3c ab fe 7a 3d b0 76 b8 bd ce 61 07 bd
       0.026176319 0.061278027 -0.09007013 -0.03305226
0003f0 be 61 a6 bd 11 79 0f bd 33 f7 7f bc c5 3e 76 bd
       -0.081241116 -0.035027567 -0.015622902 -0.060118455

fc2.bias f4 [84]
000000 8b b0 35 bd 4f 6e 91 3d 75 a9 2e 3d cc 6d 86 bd
       -0.044357818 0.07101118 0.042642076 -0.06563911
000010 9b 18 1c bc d0 94 89 3d 9c 6e 55 bb 99 16 95 3d
       -0.009527351 0.06717837 -0.003256715 0.07279701
000020 97 ec 2c bd 41 6c 80 bd 61 6c 45 3d 61 a9 b9 bc
       -0.042217817 -0.06270648 0.04819906 -0.022663774
000030 ca 91 a3 3d 22 81 75 3d 0f ca 20 3d 1b 1c 86 3d
       0.079867914 0.059937604 0.039255198 0.065483294
000040 e5 50 58 bd 82 21 9e 3d 4c b2 8c bd 3a 80 a1 bd
       -0.052811522 0.07721235 -0.06869945 -0.078857854
000050 bc 24 03 3d 5a e2 6a 3d 35 96 12 bd 21 20 a8 3d
       0.032017455 0.057344772 -0.03578778 0.08209253
000060 04 ec 4a bc 15 dc 6c bd 0e 31 a6 bc 97 85 27 bd
       -0.012385372 -0.057827074 -0.020287063 -0.040898886
000070 58 c5 78 3b fc 35 ac 3c ab f5 74 3d 70 ae 3b bd
       0.0037959423 0.021021836 0.0598046 -0.045820653
000080 87 50 31 bd 24 bc 25 bd f9 a8 8d bd e0 f2 90 3d
       -0.043289687 -0.040462628 -0.069169946 0.07077575
000090 72 bf 71 3c 45 e7 67 bd 25 88 1c bd 2b e6 86 bd
       0.014755117 -0.05661704 -0.038215775 -0.0658687
0000a0 68 1e 67 3d 25 64 d4 bc 7b e1 d1 3b 65 61 a7 3d
       0.056425482 -0.025926659 0.006405053 0.081728734
0000b0 ba ff a7 3d f0 62 75 bd 8a b6 a2 bd fb da 55 3d
       0.08203073 -0.059908807 -0.07944973 0.05221079
0000c0 7f a4 3a 3d b6 cc 97 bd 2d 4a 00 3a a7 4c 19 3d
       0.045567032 -0.074120924 0.00048938656 0.037426617
0000d0 df e1 f8 3c 8a d6 81 bd 15 3e ce 3c 53 66 27 bd
       0.030381141 -0.06339748 0.025176087 -0.04086907
0000e0 58 38 1a 3d 49 8e 71 3d cb 52 f6 bc a8 c4 26 3d
       0.03765139 0.058973584 -0.030068776 0.04071489
0000f0 88 c6 ae 3d 8f ec 8d 3c 09 d1 77 bd 22 90 3f 3d
       0.085339606 0.017324714 -0.060502086 0.046768315
000100 d8 33 e3 3b c6 19 76 3d 67 40 a0 bd bc 64 5a 3c
       0.0069336705 0.060083173 -0.07824784 0.013329681
000110 7d bc c6 bb d8 6d 0a bd 67 cc 70 3d 1d 55 86 3d
       -0.00606495 -0.03379616 0.058788683 0.06559203
000120 aa ac 44 bd b6 a9 56 3d d6 98 d7 bc b0 45 18 3d
       -0.048016228 0.052407943 -0.026317995 0.037175834
000130 b2 ef 8b 3d 1b 0f 29 3d ce 6e 80 3c 5a df 8f 3c
       0.06832828 0.04127417 0.015677836 0.017562557
000140 6e 9a d5 ba d5 83 ba bd 33 af 79 bd 82 fa a0 3d
       -0.0016296634 -0.09107176 -0.0609581 0.078602806

fc3.weight f4 [10, 84]
000000 71 5c ae bd 46 f9 3f bd 78 ec f3 bc 1f 7b c2 bc
       -0.085137255 -0.046868585 -0.029775843 -0.02374035
000010 e7 52 09 bd 24 20 ab 3c 3a 03 80 3c 59 a1 6f 3d
       -0.033526327 0.02088935 0.015626539 0.058503482
000020 34 4a 1a 3d 96 b1 a2 3d d1 f4 a5 bd dc fb 7a 3d
       0.037668422 0.07944028 -0.08103336 0.061275348
000030 32 30 af bd 38 d7 98 bd 55 ff 02 3d c5 87 f1 bc
       -0.085541144 -0.07462925 0.031981785 -0.029483685
000040 02 b5 a5 bd 38 95 03 3d e9 fa 55 3c 9f df b4 3d
       -0.08091165 0.032124728 0.01306031 0.08831715
000050 31 fd b5 3c 8e fb c1 bd 38 d4 59 3c fa 09 46 3d
       0.022215458 -0.094718084 0.013295226 0.04834936
000060 6b 44 a5 3d d9 5d d9 3d c3 84 88 bd 62 71 dd 3d
       0.0806969 0.10613603 -0.06665947 0.10812642
000070 7d da d2 bb 91 6a 2c 3d ad 51 82 bd 40 6a 3e bd
       -0.0064347372 0.042093817 -0.06363235 -0.046488047
000080 93 cf 85 3d 60 fe 44 bc 86 a6 a4 3d 75 7a 57 3d
       0.06533732 -0.012023538 0.08039574 0.05260702
000090 f4 ed 90 bb e8 c1 46 bd e5 28 4f bc 30 6e a9 3d
       -0.0044228975 -0.048524767 -0.012644027 0.0827297
0000a0 14 1d fc 3c f2 52 82 bd 95 a5 e0 bc 21 d5 03 3d
       0.030775584 -0.06363477 -0.027422706 0.032185677
0000b0 1e 02 cb 3d 44 7e 8c bd 72 2b a8 3b 1b 58 ae ba
       0.09912513 -0.06860021 0.005132132 -0.0013301404
0000c0 27 93 b1 3a 2a e2 f1 3c 3f bd 9e bc 30 3c 2a bc
       0.0013547883 0.029526789 -0.019377349 -0.010390326
0000d0 f0 38 ca 3d 09 10 8f bd 5d 91 73 bb f5 75 88 3d
       0.09874141 -0.0698548 -0.00371655 0.066631235
0000e0 4b 7d 2b 3c 51 02 ad 3d 5c 25 d2 3d 08 ab 25 3d
       0.010466884 0.084477074 0.10261032 0.04044631
0000f0 2b 84 27 3d e7 c9 5b bd 05 67 de 3d 83 b0 bf bb
       0.04089753 -0.053659346 0.10859493 -0.0058498993
000100 23 71 01 3d b2 a7 69 3d f3 7f cf 3d 77 ac 47 bd
       0.031602036 0.057044692 0.10131826 -0.04874846
000110 7e e8 6d bd 9a dc 38 bd 19 dd 6f 3c 22 ea c4 3d
       -0.05808305 -0.045132257 0.014640116 0.0961497
000120 6c 53 c3 bd 27 10 c7 bd d0 44 ba 3c 0e ed b2 3d
       -0.09537396 -0.09719878 0.02273789 0.08736621
000130 fb 0a 5e 3c e0 92 a9 3c 0b 1e 7e 3d 8c 5e df bd
       0.013552423 0.020699918 0.06204037 -0.10906705
000140 ac ce 3e bd 31 b9 c2 bd 7b e8 68 bd ae 99 c4 bd
       -0.046583816 -0.09507979 -0.056862336 -0.095996246
000150 c8 79 06 bc 95 db 02 bd 63 e4 0d 3d cb d6 6c bd
       -0.008207746 -0.03194769 0.034641635 -0.05782203
000160 e5 82 12 bd 89 a8 43 bd 79 aa 8f bd 92 d9 5c bd
       -0.035769362 -0.04776815 -0.07014937 -0.05391843
000170 bd af 8e 3c 40 fb 8c 3c 15 3e 9d bd b5 78 8a 3d
       0.017417783 0.01720965 -0.07677857 0.06761304
000180 c8 22 a9 bd 8e 3b 60 bd 45 d5 47 3d 32 0c ae bd
       -0.08258587 -0.054744296 0.048787374 -0.0849842
000190 fd 14 ac 3d 35 2d 04 bd d5 d5 c9 bd 46 00 b5 3d
       0.08402441 -0.032269675 -0.09855238 0.08837943
0001a0 c5 19 0e bd 15 c3 a9 3d a4 6e 7f bd 66 31 aa bd
       -0.034692544 0.08289162 -0.062361374 -0.08310203
0001b0 26 17 31 bc b6 62 6d 3d 95 b3 a5 3d c8 72 a6 bc
       -0.010808742 0.057955466 0.08090893 -0.020318404
0001c0 e8 01 af bd ed 1f e7 3c 81 85 09 bd 93 ec 0c 3d
       -0.085452855 0.028213466 -0.033574585 0.034405302
0001d0 78 ed b3 3d e3 b8 d7 bd 35 ca 9a bd 0f 51 d2 3d
       0.08785528 -0.10533311 -0.07558099 0.10269367
0001e0 d1 95 ca 3d 5a 2c d6 bd 81 dd 56 bd 27 2a c6 bd
       0.098918565 -0.10457678 -0.052457336 -0.09676009
0001f0 1b 65 86 b8 a0 4d 41 bd 18 fe c8 bd d2 73 6f bd
       -6.40845e-05 -0.04719317 -0.098140895 -0.058460064
000200 0a f9 8c 3c c7 90 6e bd a6 ed bb 3d 56 62 73 3d
       0.017208595 -0.05824354 0.09176187 0.059419952
000210 32 c6 6b 3b 85 74 5d 3d b6 05 8c bd 14 73 1a bd
       0.0035976288 0.0540662 -0.06837027 -0.037707403
000220 29 b0 a4 bc e5 a8 de bd a1 a8 9c 3c 3e e9 09 3d
       -0.020103531 -0.10872058 0.019123377 0.033669703
000230 b2 2a da bd 28 74 08 3d 0f 69 a1 bc 0a be c4 bd
       -0.10652675 0.0333139 -0.019703416 -0.096065596
000240 f2 98 36 bd 02 db 4d 3d e0 ea 42 3d 6d cf d9 bd
       -0.044579454 0.05025769 0.047587276 -0.106352665
000250 b5 03 a4 bd d0 fe a1 3d 0b 0c c2 3d cd ee 3f 3d
       -0.080085196 0.0790993 0.09474953 0.046858598
000260 36 13 2c bc 45 40 36 3d 4e fb c6 bd 41 ea 3c bd
       -0.010502627 0.044494886 -0.09715901 -0.04612184
000270 35 69 81 bd ba ff 6a bc 17 1d 2f 3d 5b 4c a6 bd
       -0.06318895 -0.0143431965 0.04275235 -0.081200324
000280 1a 82 a0 3d 43 95 18 3d ef da bd bc db ad 54 3c
       0.07837315 0.037251722 -0.023175685 0.0129809035
000290 37 d0 0d 3d 7c 5f aa 3c 79 91 ce bd 7b 1b d6 bd
       0.034622397 0.020797484 -0.100863405 -0.1045446
0002a0 1e 1f 60 3d 0b b0 95 bb a8 1f 2a bc 4e da 8a 3c
       0.054717176 -0.004568105 -0.010383524 0.016949799
0002b0 10 e4 38 3c a5 f0 b5 3d 1e a4 ab bd 57 0a 93 bd
       0.011284843 0.0888379 -0.08380912 -0.071797065
0002c0 51 78 33 3d fa ae b3 3d 46 f7 7b 3d 0f d1 cf bc
       0.043815915 0.087736085 0.061515115 -0.025368242
0002d0 c6 64 bc bc e4 99 30 3d 1b 65 ef bc 99 97 83 3d
       -0.022997271 0.04311551 -0.029223016 0.06425399
0002e0 c4 19 ba 3a 3e 22 ca bd 20 d9 f4 3b e5 1f 46 3c
       0.0014198353 -0.098698124 0.0074721724 0.012092565
0002f0 b6 db 35 bd d6 c2 db 3c d5 89 5a 3b c3 61 cf 3d
       -0.044398986 0.026826303 0.0033346314 0.101260684
000300 50 c0 cf bc 4f 27 06 bd 26 80 b9 3d c8 38 93 3d
       -0.025360256 -0.03275233 0.090576455 0.071885645
000310 1f e2 c8 bd 50 08 31 bd a9 46 f0 3c 6f 0f 9f bd
       -0.09808754 -0.043220818 0.029330568 -0.077666156
000320 f2 da 0a 3d 25 e0 c2 3d c5 ba 3f 3c c8 ba bb bd
       0.03390021 0.095154084 0.011702244 -0.09166485
000330 eb a2 24 bd c0 03 07 3b 04 00 cc bc 0d 91 a2 3d
       -0.040194433 0.00206016 -0.024902351 0.079378225
000340 a7 c5 50 3d 2d 5f c6 3c e8 6e c9 3d fc b2 06 3d
       0.050969746 0.024215305 0.09835607 0.032885537
000350 b6 2e bc 3c b7 44 8f bd c9 82 d6 bd f2 18 a3 bd
       0.022971492 -0.06995528 -0.10474164 -0.07963742
000360 f7 a4 de bd f0 df 5c 3d b3 a0 a7 3d 8c 09 40 bd
       -0.10871308 0.0539245 0.08184948 -0.046884105
000370 ab c2 2d 3d 21 4c a6 ba f8 47 40 3d b9 f7 db bd
       0.042421978 -0.0012687483 0.046943635 -0.10740609
000380 1b d9 24 bd 93 ce 59 bd 43 87 ae bd cd 49 78 3c
       -0.04024611 -0.05317552 -0.08521893 0.015154314
000390 6c bf 97 3d 28 97 c2 bd fa 9a 43 3d aa c8 7d 3d
       0.07409558 -0.09501487 0.04775522 0.061958946
0003a0 0f 53 c2 3d 5b 34 40 bd 6c 7c b4 3c 27 ab 82 3d
       0.094884984 -0.04692493 0.022031985 0.06380301
0003b0 53 52 73 bd 0c ac c5 bc 92 6a 14 bb 44 44 29 bd
       -0.059404682 -0.02412989 -0.0022646529 -0.04132487
0003c0 37 7b 6e bd df ac a0 bb 78 41 b6 bc f3 7a 99 bc
       -0.058222976 -0.0049034203 -0.022248015 -0.018735385
0003d0 38 f0 2e 3d 72 17 59 3d 78 e7 c6 3d 36 e0 de 3d
       0.04270956 0.053000875 0.09712118 0.108826086
0003e0 35 67 93 bd aa 96 93 bd ab 96 36 bd 29 49 82 bd
       -0.071974196 -0.07206471 -0.044577282 -0.063616104
0003f0 04 ce cb 3c 9c 21 28 3d 9a b9 35 3d 02 67 b4 3c
       0.02487851 0.041047677 0.044366457 0.022021774

fc3.bias f4 [10]
000000 c3 3d 28 3d 51 20 dc 3c a3 03 2b bc f1 6c a2 bd
       0.041074526 0.026870878 -0.010437879 -0.07930935
000010 17 69 d8 3d 79 1b 4b 3d f6 32 b4 bd f1 26 ce bd
       0.10566919 0.049586747 -0.087987825 -0.10066021
000020 42 3c 82 3d 85 b2 d8 3d
       0.063591495 0.10580925
